NN/model.pth (torch, 26671 bytes, 16 tensors)

fc1.weight f4 [32, 13]
0	0x3daf3915	0.085558094
1	0xbebc9660	-0.36833477
2	0x3da7c6a7	0.08192187
3	0xbe04bd04	-0.12962729
4	0xbca45e28	-0.020064428
5	0xbe7f8cb0	-0.24956012
6	0x3e038ffa	0.12847891
7	0xbe67f672	-0.22652605
8	0xbed88c76	-0.42294663
9	0x3eb549c7	0.3540785
10	0x3e87c87d	0.26520148
11	0xbe389abd	-0.18027778
12	0xbe554ca6	-0.2083002
13	0xbd838389	-0.06421573
14	0xbe367b5e	-0.17820498
15	0x3d8efcd6	0.069818184
16	0x3cf9c655	0.03049008
17	0x3ec812d2	0.3907686
18	0x3e04aa32	0.1295555
19	0xbe41abf1	-0.18913247
20	0xbcd46b8d	-0.02593019
21	0xbed38abc	-0.41316783
22	0x3e1c8b26	0.15287456
23	0xbe6c4e37	-0.23076712
24	0xbeed0489	-0.46292523
25	0xbd85df72	-0.065367594
26	0x3dfc54b7	0.123208456
27	0x3f16b3bc	0.58868
28	0x3e87781d	0.26458827
29	0xbdd7f537	-0.10544818
30	0x3e61a04d	0.22033806
31	0xbe3c6a30	-0.18399882
32	0xbdbf12fa	-0.09329791
33	0xbe831e28	-0.25608945
34	0xbdead27d	-0.11465929
35	0xbea17dca	-0.31541282
36	0xbeded5b8	-0.4352243
37	0xbd9099b5	-0.07060567
38	0x3da6370b	0.08115967
39	0xbbbed03f	-0.0058231647
40	0xbd2cc701	-0.042181972
41	0xbe502e48	-0.20330155
42	0x3d89886a	0.06715472
43	0x3c8fe005	0.017562876
44	0xbe47feaa	-0.1953074
45	0x3e4bba3a	0.19895259
46	0x3e4eaf61	0.20184089
47	0xbcceffef	-0.025268523
48	0x3ed34f5e	0.4127149
49	0x3c64141d	0.013920811
50	0xbe964afc	-0.29354084
51	0xbe4ac65e	-0.19802234
52	0x3c824e78	0.015906557
53	0xbf2213d2	-0.63311493
54	0x3e1bb56d	0.15205927
55	0x3d0ba3ec	0.034091875
56	0x3d9b6ff2	0.07589711
57	0x3e78b38b	0.2428724
58	0x3e3d456d	0.18483515
59	0xbca3fa5b	-0.02001684
60	0x3eee231c	0.4651116
61	0xbe0fdb4e	-0.14048502
62	0x3ef1da60	0.4723692
63	0xbe2497b9	-0.16073503
64	0x3ec667a6	0.38750952
65	0x3eca5a8c	0.39522207
66	0xbe3d0cd5	-0.18461926
67	0x3e08df8d	0.13366528
68	0xbbfb9a5f	-0.0076783146
69	0xbe41e212	-0.18933895
70	0xbd26425f	-0.04059064
71	0x3dcc0d2b	0.09963449
72	0x3e8823f2	0.26589924
73	0x3e9be272	0.30446202
74	0x3dda21c1	0.10650969
75	0x3eac8d66	0.33701628
76	0xbe693d6d	-0.22777338
77	0xbd41ddd5	-0.047330696
78	0xbedb2ee4	-0.42809212
79	0x3ebdd02a	0.3707288
80	0xbdb716e8	-0.08939916
81	0xbd859768	-0.06523019
82	0x3e2a249b	0.16615526
83	0x3dfef3b7	0.12448829
84	0xbc068636	-0.008210709
85	0xbe337ad2	-0.17527321
86	0xbe1a0df9	-0.15044393
87	0xbd1991b5	-0.037492473
88	0xbe047a9e	-0.129374
89	0x3e981760	0.29705334
90	0x3e2fbde8	0.17162287
91	0xbd89d4ac	-0.06730017
92	0x3e434efd	0.190731
93	0x3dcaf983	0.09910872
94	0xbdde8b22	-0.10866381
95	0xbcf4c938	-0.029881105
96	0xbe2d4acd	-0.16923065
97	0xbd757e1c	-0.05993472
98	0xbcf57cdc	-0.029966764
99	0x3d9bb121	0.07602144
100	0x3ed155ac	0.40885675
101	0x3eb27c59	0.34860495
102	0x3eafd222	0.34340006
103	0x3e3dd5d7	0.18538605
104	0x3e3a7ef2	0.18212488
105	0x3e324d6e	0.1741235
106	0xbceeffe7	-0.029174758
107	0x3e810fa1	0.25207236
108	0xbdd04092	-0.10168566
109	0x3d3f2910	0.04667002
110	0xbe63081b	-0.2217106
111	0xbe910bc6	-0.28329295
112	0x3e933185	0.28748718
113	0x3bffb884	0.0078039784
114	0x3e3474cb	0.17622678
115	0xbe822dff	-0.25425717
116	0xbea7726e	-0.3270449
117	0xbdda3299	-0.10654182
118	0xbdd231b0	-0.102633834
119	0x3d1b938a	0.0379825
120	0xbe168fe6	-0.1470333
121	0xbef663f3	-0.4812313
122	0xbe30da61	-0.17270805
123	0x3c3f53b0	0.0116776675
124	0x3e409bba	0.18809405
125	0xbe73fa9e	-0.23826072
126	0x3e820fb5	0.2540261
127	0xbe2a04ef	-0.16603445
128	0x3efaf39d	0.49013987
129	0x3e772207	0.24134074
130	0xbe08019e	-0.13281867
131	0x3edc0bc1	0.42977718
132	0x3cafd79a	0.021465112
133	0xbcd955bd	-0.026530141
134	0x3e0ca780	0.13735771
135	0x3e120685	0.142603
136	0xbd9d3611	-0.07676328
137	0xbd893d16	-0.06701104
138	0x3d8d25d4	0.06891981
139	0x3ec2820f	0.37989852
140	0xbf058630	-0.5215788
141	0xbe70a82f	-0.23501657
142	0xbdb08ee0	-0.08621001
143	0xbef87e42	-0.48533827
144	0xbd1a81e0	-0.037721515
145	0x3e11ae3e	0.14226624
146	0x3d374295	0.044741232
147	0x3d2d7a3b	0.042352896
148	0x3d423371	0.04741234
149	0xbd0010c0	-0.031265974
150	0x3e7003b8	0.23438919
151	0xbe964faf	-0.2935767
152	0x3e1ae0f2	0.15124872
153	0xbe7ca025	-0.24670465
154	0xbe91364b	-0.28361735
155	0x3ec6f28d	0.38856927
156	0x3d59a3d2	0.053134747
157	0x3f21082c	0.62903094
158	0xbe0ef3cc	-0.13960189
159	0xbe00826c	-0.12549752
160	0x3c2fdfbf	0.010734498
161	0x3d4c016b	0.04980604
162	0x3e7110c4	0.23541552
163	0x3e3c0269	0.18360294
164	0xbe5c0d11	-0.2148936
165	0xbb45dbb5	-0.003019077
166	0x3ea67e1d	0.32518092
167	0xbd8ec338	-0.06970829
168	0xbe04d0a2	-0.12970212
169	0xbe3f63e0	-0.18690443
170	0x3f0db1d3	0.55349463
171	0xbd5bc59e	-0.05365526
172	0x3e695cce	0.22789308
173	0xbbad4b9b	-0.005288554
174	0x3ea9ac3d	0.3313922
175	0xbe790986	-0.24320039
176	0xbe854435	-0.260286
177	0xbe89d60a	-0.2692111
178	0x3e8dca55	0.2769343
179	0xbefa70f4	-0.489143
180	0x3cbfaab7	0.023396833
181	0xbcb6d09f	-0.022316275
182	0xbdf31ea4	-0.118710786
183	0xbc9f50d7	-0.019447727
184	0xbe6e9d45	-0.23302181
185	0x3e2588a8	0.16165411
186	0x3cbba752	0.022906933
187	0x3e75f3d7	0.24018799
188	0xbe2f3b0b	-0.17112367
189	0xbda01046	-0.07815604
190	0xbc1d589c	-0.009603646
191	0xbdc5d188	-0.096591055
192	0x3eab5e42	0.3347035
193	0xbd9d5cf4	-0.07683745
194	0x3ee8fa76	0.45503587
195	0xb8cf7466	-9.89221e-05
196	0x3e0b38a6	0.13595828
197	0xbdf0002a	-0.11718781
198	0x3e9ae094	0.30249465
199	0x3dd02ca5	0.10164765
200	0xbd43b79e	-0.047782533
201	0xbd32234c	-0.043490693
202	0x3e3ecc5d	0.18632646
203	0xbeab61d6	-0.3347308
204	0xbe290623	-0.16506247
205	0xbeae74b3	-0.3407341
206	0xbdd7d0a4	-0.10537842
207	0xbdead5e3	-0.11466577
208	0x3c24daa2	0.010061892
209	0x3e3fc200	0.18726349
210	0x3dfa358f	0.12217247
211	0x3cda5eec	0.02665659
212	0x3dfaae87	0.1224032
213	0x3d25c635	0.040472228
214	0x3e2b2f96	0.16717371
215	0xbca76685	-0.020434627
216	0xbcad8aa5	-0.021184275
217	0xbf0abe81	-0.54196936
218	0xbd9109a6	-0.070819184
219	0xbe24e79f	-0.16103981
220	0x3dd8fb1e	0.10594772
221	0x3ec6c8f2	0.38825184
222	0x3e5fe29f	0.21863793
223	0x3e6cc832	0.23123243
224	0xbc6fda6b	-0.014639477
225	0xbe030ff3	-0.12799053
226	0x3e158789	0.14602484
227	0x3d070ea2	0.03297294
228	0xbd9af054	-0.0756537
229	0x3ede1ba4	0.43380463
230	0xbeb619e8	-0.3556664
231	0x3d543287	0.051806
232	0x3ebb5eaa	0.3659566
233	0x3e852535	0.2600495
234	0xbd2dd183	-0.042436134
235	0x3e1fa5cd	0.15590592
236	0xbe98dc1b	-0.29855427
237	0x3e3db3cc	0.18525618
238	0x3d1c078c	0.038093135
239	0xbe81fc53	-0.2538782
240	0xbd855396	-0.065100834
241	0xbcbfee5a	-0.023429085
242	0x3e34ac3b	0.17643826
243	0x3ecedc61	0.4040251
244	0x3ec2c23b	0.3803881
245	0x3eb900a6	0.36133307
246	0xbd5ff0cc	-0.054673
247	0xbe33b13a	-0.17548075
248	0xbe1b0246	-0.15137586
249	0xbe35f567	-0.17769395
250	0x3e2e153a	0.17000285
251	0xbe881262	-0.26576525
252	0x3e35394a	0.17697635
253	0x3df59ebc	0.11993167
254	0xbe2b9195	-0.16754754
255	0xbe7c8c82	-0.24662974

fc1.bias f4 [32]
0	0x3e6f336a	0.23359457
1	0x3d47aaef	0.048747
2	0x3df57f9a	0.11987229
3	0x3c09c037	0.008407644
4	0xbe163cae	-0.14671585
5	0xbe100318	-0.1406368
6	0xba99d9c6	-0.0011737875
7	0xbe290573	-0.16505985
8	0x3e5995f8	0.21248615
9	0xbd388a6f	-0.045053896
10	0xbd857446	-0.06516318
11	0xbe0cdad2	-0.13755348
12	0xbdc76597	-0.097361736
13	0xbd9ed09a	-0.07754631
14	0x3d7e42da	0.062075473
15	0xbe1b4692	-0.15163639
16	0xbbeac955	-0.007165114
17	0xbe658619	-0.22414435
18	0xbd58aa6b	-0.0528969
19	0x3e5879e1	0.21140243
20	0xbd53351c	-0.05156432
21	0x3d08ba9c	0.03338109
22	0xbe2ead7f	-0.17058371
23	0x3dd0d6f3	0.10197248
24	0xbd97341e	-0.073829874
25	0xbe422597	-0.18959652
26	0x3e23e08e	0.1600363
27	0x3e14905e	0.14508197
28	0xbd8a6180	-0.06756878
29	0x3d84647d	0.06464479
30	0x3d90dbba	0.070731595
31	0x3d8de036	0.069275305

fc2.weight f4 [32, 32]
0	0xbc9a69d1	-0.018849285
1	0x3d0ed81c	0.034874067
2	0xbddb226e	-0.10699926
3	0x3e23fdbf	0.16014765
4	0xbe2d85bc	-0.16945547
5	0xbe623abf	-0.22092722
6	0x3e4b0e54	0.19829684
7	0x3d0cba5e	0.03435742
8	0xbead18c8	-0.3380797
9	0xbd817c03	-0.063224815
10	0x3e3638ec	0.17795151
11	0x3e9215ea	0.28532344
12	0x3cc18173	0.023621297
13	0x3dc46cb4	0.09591046
14	0x3da3ba7b	0.07994553
15	0x3d850797	0.06495588
16	0xbca39a4b	-0.019971034
17	0x3d9b1f76	0.0757436
18	0x3e2b5925	0.16733225
19	0x3d89134b	0.06693133
20	0xbe1f10a8	-0.15533698
21	0x3d93a29e	0.07208751
22	0xbe107f55	-0.14111073
23	0xbe5dfb80	-0.21677971
24	0x3db0a65a	0.08625479
25	0x3e61d39f	0.22053383
26	0xbca1b40e	-0.019739177
27	0xbe074db3	-0.13213234
28	0xbe0cc534	-0.13747102
29	0xbea98820	-0.33111668
30	0x3e6a9edc	0.22912163
31	0x3e1948fc	0.14969248
32	0x3e1fcc5f	0.15605305
33	0xbdfa4f99	-0.12222213
34	0xbb6e1be5	-0.0036332544
35	0xbc3bb9f6	-0.011457911
36	0x3da10428	0.07862121
37	0xbe173f6d	-0.14770289
38	0x3e13b483	0.14424329
39	0x3d2df03e	0.04246544
40	0xbe4ee378	-0.2020396
41	0x3e8ca1c5	0.2746717
42	0xbdf6f709	-0.12058837
43	0xbca07b28	-0.019589975
44	0xbdbeb7cf	-0.093124025
45	0xbe20950e	-0.1568186
46	0x3d9c0223	0.07617595
47	0xbd636ba2	-0.05552257
48	0x3cccd22f	0.025002567
49	0xbe2f6e11	-0.17131831
50	0x3dc725ab	0.097239815
51	0x3e34c71f	0.17654084
52	0x3e8dbdc3	0.2768384
53	0x3dc77275	0.09738628
54	0x3d8d094b	0.06886538
55	0xbdd398cb	-0.10331877
56	0x3dabaa30	0.0838207
57	0xbd6a9aa3	-0.05727638
58	0x3dc616d8	0.09672326
59	0xbd855ea8	-0.06512195
60	0xbd3756ff	-0.0447607
61	0x3da08168	0.07837182
62	0xbd842b38	-0.06453556
63	0xbe75d14b	-0.2400562
64	0xbe70b08d	-0.23504849
65	0x3d369779	0.04457805
66	0x3ea19d17	0.31565163
67	0xbe8f8315	-0.28029695
68	0xbe80dda3	-0.25169095
69	0xbe75e946	-0.24014768
70	0x3e3e1aaf	0.18564866
71	0xbdbf74d4	-0.09348455
72	0x3e0e3bdd	0.13890024
73	0xbe552401	-0.20814516
74	0x3e1d87c5	0.15383823
75	0x3d9275c0	0.07151365
76	0xbdbb031d	-0.09131453
77	0x3ec986dc	0.39360702
78	0xbd12250d	-0.035679866
79	0x3d1ac8a1	0.03778899
80	0x3dd9a474	0.1062707
81	0x3e0671d8	0.13129365
82	0xbe824636	-0.25444192
83	0x3e6cfe3c	0.23143858
84	0xbeb65d8d	-0.3561825
85	0xbe1e47cf	-0.1545708
86	0x3c5515cb	0.013005684
87	0x3e80b2fd	0.25136557
88	0xbdd9af64	-0.10629156
89	0x3d260714	0.040534094
90	0x3d6cece0	0.05784309
91	0xbd998bbd	-0.07497356
92	0xbc5e5678	-0.01357042
93	0x3b103c40	0.0022008568
94	0xbe144c03	-0.14482121
95	0xbe441a75	-0.19150718
96	0x3e74b7eb	0.23898284
97	0x3e594b40	0.21220112
98	0xbe5c8132	-0.21533659
99	0xbe444e65	-0.1917053
100	0x3ec2d16f	0.3805041
101	0x3dcb177c	0.09916589
102	0xbe845e0e	-0.25853008
103	0xbdcbc99a	-0.09950562
104	0xbdfee986	-0.12446885
105	0xbc78b9dd	-0.015181032
106	0xbe2fea89	-0.17179312
107	0x3e8f4d96	0.2798888
108	0xbea6348b	-0.32461962
109	0xbd24108c	-0.040054843
110	0x3d4e8a1e	0.050424688
111	0xbe29e090	-0.1658957
112	0x3dcef8f0	0.10106075
113	0x3ca1b0f7	0.019737704
114	0xbe34d7c5	-0.17660435
115	0x3d2cd07e	0.04219102
116	0xbe4040f5	-0.18774779
117	0x3e0e8403	0.13917546
118	0xbcfbeeae	-0.03075346
119	0x3de2d4cd	0.11075745
120	0x3da36a32	0.079792395
121	0xbdfab10c	-0.122408
122	0x3d8ba27c	0.06818101
123	0x3e30145d	0.17195268
124	0x3e139644	0.1441279
125	0xbc8031cc	-0.015648745
126	0x3ce1a633	0.02754507
127	0xbea3184c	-0.31854475
128	0x3d864cbd	0.065576054
129	0xbe2780c0	-0.16357708
130	0x3d8f6d50	0.070032716
131	0xbd9ec365	-0.07752112
132	0x3de03728	0.1094802
133	0xbdc48108	-0.09594923
134	0xbdd7bbc9	-0.10533864
135	0x3e11d600	0.14241791
136	0xbe58ea4c	-0.21183127
137	0xbd1d13e7	-0.03834906
138	0x3c29caa2	0.010363253
139	0x3cc4ef1f	0.024039803
140	0xbc8e8935	-0.01739941
141	0xbe004e62	-0.125299
142	0xbe11e9fc	-0.14249414
143	0xbdc3f632	-0.095684424
144	0xbd7234ad	-0.059132267
145	0x3e7b3e18	0.24535406
146	0x3dcccc7c	0.0999994
147	0x3c1703d1	0.0092172185
148	0x3ed31feb	0.4123529
149	0xbdce1112	-0.1006185
150	0xbd5f36c2	-0.05449558
151	0xbe58552f	-0.21126245
152	0x3d6d4dfe	0.057935707
153	0xbd441780	-0.047873974
154	0xbd7c3ac5	-0.061579484
155	0x3d250c1f	0.040294763
156	0x3c0e4eb6	0.008685758
157	0x3cc1126c	0.023568355
158	0xbde647b8	-0.11244148
159	0xbdcba125	-0.09942845
160	0x3d3bc1af	0.045839008
161	0xbea902bd	-0.33009902
162	0xbe54ae38	-0.20769584
163	0x3d8229b8	0.063556135
164	0xbcad3c60	-0.021146953
165	0x3e71c8f2	0.23611811
166	0xbe0581c3	-0.13037781
167	0x3deca99c	0.11555788
168	0xbdb4c2bc	-0.08826205
169	0x3d4c7d4e	0.049924187
170	0xbca7e5cd	-0.02049532
171	0xbde66c36	-0.11251108
172	0x3e4cf3c6	0.20014867
173	0xbc12d14b	-0.008961032
174	0xbdd5ee4c	-0.10445842
175	0x3dc896a8	0.097943604
176	0x3d6b8359	0.05749831
177	0x3e2e5c92	0.170275
178	0x3d8d68b8	0.06904739
179	0xbeab61c8	-0.3347304
180	0x3eca77c0	0.39544487
181	0xbd2b7cf3	-0.041867208
182	0x3e828be1	0.25497344
183	0x3dd4eaea	0.10396369
184	0xbe129427	-0.14314328
185	0x3e85ce53	0.26133975
186	0x3dbc05c5	0.09180788
187	0xbe72411f	-0.23657654
188	0xbe1f69fb	-0.15567772
189	0x3e25fb9d	0.16209264
190	0x3d0ef9a7	0.034906056
191	0x3dd78598	0.10523528
192	0xbd181e87	-0.03713849
193	0xba0b56b0	-0.00053153466
194	0x3d47ea7e	0.048807614
195	0xbe450da8	-0.1924349
196	0xbe55ad28	-0.20866835
197	0x3d8b0fc8	0.067901194
198	0xbc9a916b	-0.018868169
199	0x3e8123e7	0.25222704
200	0x3dee79ba	0.11644311
201	0x3e7a3666	0.24434814
202	0xbdebb854	-0.11509767
203	0xbe7ccfe1	-0.24688675
204	0x3db82167	0.08990746
205	0x3d875ad3	0.0660912
206	0xbda383f5	-0.07984153
207	0x3c127a8a	0.008940348
208	0xbd8325e3	-0.06403711
209	0xbba79583	-0.0051142587
210	0x3e9594d0	0.29215097
211	0x3c1e04cf	0.009644701
212	0x3eaac019	0.33349684
213	0x3da4490a	0.080217436
214	0xbd9286e7	-0.07154637
215	0x3d983b8e	0.07433234
216	0x3d9213a2	0.07132651
217	0x3dff25e6	0.124584004
218	0xbe425862	-0.18979028
219	0xbdffaa91	-0.12483705
220	0xbca61496	-0.020273488
221	0x3da6a062	0.08136059
222	0x3dd583f0	0.10425556
223	0x3d8b8adc	0.06813595
224	0xbc9608ab	-0.01831468
225	0x3e07284b	0.13198964
226	0xbce18ddd	-0.027533466
227	0x3d848608	0.06470877
228	0xbd6a0480	-0.057133198
229	0x3c540aff	0.012942075
230	0xbd481ccc	-0.048855588
231	0x3d1e1fbc	0.038604483
232	0xbee393ad	-0.44448605
233	0x3d362193	0.044465613
234	0x3d919755	0.071089424
235	0x3e96fb55	0.29488626
236	0x3deceea1	0.11568952
237	0x3e3a8919	0.18216361
238	0xbe4b2c94	-0.19841224
239	0x3e22eb00	0.15909958
240	0xbdf58dc8	-0.11989933
241	0xbd9293e1	-0.07157112
242	0x3beced0d	0.007230407
243	0xbe44a135	-0.1920212
244	0xbecb66ba	-0.39726812
245	0x3d5d7232	0.054063983
246	0xbd842740	-0.06452799
247	0xbe333adc	-0.17502922
248	0x3deedac6	0.116628215
249	0x3e48bd19	0.19603385
250	0x3e1f1e93	0.15539007
251	0xbdcf3efa	-0.10119434
252	0xbefd5c48	-0.49484468
253	0xbe352e90	-0.17693543
254	0x3e9a0bec	0.3008722
255	0x3dad0221	0.08447672

fc2.bias f4 [32]
0	0xbda90cb3	-0.08254375
1	0xbe87dd2a	-0.26535922
2	0x3db51943	0.08842709
3	0xbcd73e1a	-0.02627473
4	0x3dbc8e63	0.092068456
5	0xbd47facc	-0.048823163
6	0xbd7f5d46	-0.06234481
7	0x3d453051	0.04814178
8	0xbe1847cc	-0.14871138
9	0xbe432eec	-0.19060868
10	0xbe260a6c	-0.16214913
11	0xbde493c9	-0.11161
12	0xbe06f19f	-0.13178109
13	0x3d7ee98c	0.062234446
14	0x3d2e5f53	0.042571377
15	0xbe12228f	-0.14270996
16	0xbdbc9717	-0.092085056
17	0xbd748461	-0.05969656
18	0xbe35a303	-0.17737965
19	0xbd5e70a7	-0.054306652
20	0xbd6391b9	-0.055558894
21	0x3d9a14ad	0.07523475
22	0x3da807c0	0.08204603
23	0xbdd9b726	-0.10630636
24	0xbd93144d	-0.071816064
25	0xbe272c23	-0.1632543
26	0xbd82dbce	-0.06389581
27	0x3e0959ed	0.1341321
28	0xbc462dec	-0.01209591
29	0xbe366981	-0.17813684
30	0x3d886941	0.066607006
31	0x3de2cfce	0.11074792

fc3.weight f4 [32, 32]
0	0x3e8141c7	0.25245497
1	0xbe50da10	-0.20395684
2	0x3dc8a91b	0.09797879
3	0xbc6643bc	-0.014054235
4	0xbdff027a	-0.12451644
5	0x3e2ceece	0.16887972
6	0xbdd54e7a	-0.10415359
7	0x3df0b423	0.11753108
8	0xbc08b64a	-0.008344242
9	0x3df047e3	0.11732461
10	0xbd554982	-0.052072056
11	0xbec32305	-0.38112655
12	0x3e9a0d88	0.3008845
13	0x3d52c0d2	0.05145342
14	0x3e866686	0.26250094
15	0xbe7d7de8	-0.2475506
16	0xbc28eae2	-0.010309907
17	0x3de4eec4	0.111783534
18	0xbd040115	-0.032227594
19	0xbd54daf9	-0.05196664
20	0x3ca320d5	0.019913116
21	0xbdf6164e	-0.12015973
22	0x3e800441	0.25003245
23	0xbc7a8529	-0.015290537
24	0x3e209324	0.1568113
25	0xbe55c3ea	-0.20875517
26	0x3cf64aa3	0.030064886
27	0xbb1dc8b1	-0.002407592
28	0x3e6f9564	0.23396832
29	0x3e70bb54	0.2350896
30	0xbc8f07bd	-0.017459745
31	0x3df5a166	0.11993675
32	0x3dbe91f8	0.09305185
33	0x3e71b7ac	0.23605222
34	0xbd824b21	-0.06361986
35	0xbe7a8c26	-0.24467525
36	0xbd8757b6	-0.066085264
37	0xbebe28fc	-0.37140644
38	0x3e0d112a	0.13776079
39	0xbe7e6ae0	-0.24845457
40	0x3e53711e	0.2064862
41	0xbcc9aeaa	-0.02461942
42	0xbe86cd08	-0.263283
43	0xbcc81138	-0.024422273
44	0xbcca2854	-0.024677433
45	0x3dba480d	0.09095774
46	0x3e88f5e0	0.26750088
47	0x3cb4d6a6	0.022075009
48	0x3e5b7d85	0.214346
49	0xbe54654c	-0.20741767
50	0xbdb75a17	-0.0895273
51	0x3ca197eb	0.01972576
52	0xbe90cafb	-0.28279862
53	0x3db6ebf1	0.08931721
54	0x3e03a04f	0.12854122
55	0xbe9bf3a0	-0.3045931
56	0xbdbedd6d	-0.09319577
57	0x3e1e0366	0.15430984
58	0x3e838111	0.25684407
59	0xbbe5d6ee	-0.007014147
60	0xbc95876a	-0.018253047
61	0x3e048eaa	0.12945047
62	0x3e0dc6d9	0.13845386
63	0xbe8e1f92	-0.2775846
64	0x3cecadc0	0.028891444
65	0xbe1f18e5	-0.1553684
66	0x3dcf3397	0.10117262
67	0xbe09921a	-0.1343464
68	0xbe12d6b5	-0.14339717
69	0xbe30a1d0	-0.17249227
70	0x3dd1afaf	0.10238587
71	0xbe71a62b	-0.23598544
72	0x3e964ce8	0.2935555
73	0xbe368c19	-0.1782688
74	0x3cae4c6b	0.021276673
75	0x3e60dcf7	0.21959291
76	0x3da4fe4c	0.08056316
77	0xbe3bf3eb	-0.18354766
78	0x3cd96ec1	0.02654207
79	0x3e1960b1	0.14978291
80	0x3caf0b1a	0.021367598
81	0xbe515fd3	-0.2044671
82	0xbe5e2bdc	-0.21696419
83	0x3bad8aa2	0.0052960673
84	0x3ceae6cb	0.028674504
85	0x3758fa25	1.2932845e-05
86	0x3c89351c	0.016748957
87	0xbd7687bc	-0.06018804
88	0xbd71d5ec	-0.059041902
89	0x3ed3230e	0.41237682
90	0x3e2f359f	0.17110299
91	0xbe170e2c	-0.147515
92	0x3d5372e1	0.05162323
93	0xbe4745cf	-0.19460224
94	0x3e3864c2	0.18007186
95	0x3e01d63e	0.12679383
96	0x3c33ff51	0.010986165
97	0xbd8ad562	-0.06778981
98	0xbe8c8550	-0.2744546
99	0xbe8ff7e6	-0.2811882
100	0x3d3b875d	0.04578339
101	0xbd8846fc	-0.06654164
102	0x3e63681a	0.2220768
103	0x3d86412e	0.06555401
104	0x3d83697d	0.06416605
105	0x3e234def	0.15947698
106	0xbd50fad1	-0.051020447
107	0xbe3e74a7	-0.18599187
108	0xbe675162	-0.22589639
109	0xbe19a0dc	-0.15002769
110	0x3d846f31	0.064665206
111	0x3d7e0bf8	0.062023133
112	0xbeb20959	-0.34772757
113	0xbe031f73	-0.12804966
114	0xbdaada32	-0.08342399
115	0xbd423023	-0.047409188
116	0xbda45408	-0.0802384
117	0x3e358213	0.177254
118	0x3a999192	0.0011716357
119	0x3e3c0413	0.18360929
120	0x3e715ad4	0.23569804
121	0x3e9491ce	0.2901749
122	0x3dc4498f	0.09584343
123	0x3e70c3fd	0.23512264
124	0xbcd4d6c1	-0.025981309
125	0x3e20b345	0.15693386
126	0x3d2a4309	0.041567836
127	0xbeb85ddb	-0.36009106
128	0x3d62de82	0.05538798
129	0xbcd0fc91	-0.025511058
130	0x3e0d73ec	0.13813752
131	0x3d97c4cc	0.07410583
132	0xbeef8c5a	-0.46786767
133	0xbe28f2c9	-0.16498865
134	0xbecb74dc	-0.39737594
135	0x3e3596d6	0.1773332
136	0xbe504a96	-0.20340952
137	0xbd73c0d0	-0.059510052
138	0x3e05628c	0.13025874
139	0xbe0da24d	-0.13831444
140	0x3e12e127	0.14343701
141	0xbf01798d	-0.50576097
142	0xbde34eca	-0.11099012
143	0xbea10fa3	-0.31457242
144	0x3dd2b2d1	0.10288013
145	0xbdc9aee9	-0.098478146
146	0x3def4bfe	0.11684416
147	0xbdb2251e	-0.08698486
148	0x3e6c7020	0.23089647
149	0xbd9dfa0b	-0.077137075
150	0x3df892f9	0.12137408
151	0xbd0c966c	-0.03432314
152	0x3c908fd9	0.017646717
153	0xbea05879	-0.313175
154	0xbe140216	-0.1445392
155	0x3e0bc757	0.13650261
156	0xbe1c387b	-0.1525592
157	0x3ce67f91	0.028137
158	0x3d7e14b8	0.062031478
159	0xbef8dead	-0.48607388
160	0xbd2b7bab	-0.041865986
161	0xbd89de5f	-0.06731867
162	0xbe78e55f	-0.24306248
163	0xbf0225eb	-0.5083911
164	0xbd36618c	-0.04452662
165	0x3e4add2a	0.1981093
166	0x3d896747	0.06709152
167	0x3e019117	0.12653004
168	0x3ddbf95b	0.1074092
169	0xbbb5065a	-0.005524439
170	0xbe6fb81e	-0.23410079
171	0xbec2b67d	-0.38029853
172	0x3c43acf5	0.011943092
173	0xbbf472fd	-0.0074599967
174	0x3d70626a	0.058687605
175	0xbe334c7a	-0.17509642
176	0xbe701519	-0.23445548
177	0x3e77949b	0.24177782
178	0xbed191af	-0.4093146
179	0xbd594e43	-0.05305315
180	0x3d1bb7a7	0.03801694
181	0xbd4f7342	-0.050647028
182	0x3e6b471e	0.22976348
183	0xbdbc6834	-0.09199563
184	0x3e6e5580	0.23274803
185	0xbe15ffbc	-0.14648336
186	0x3daf8cf2	0.08571805
187	0xbcdd2518	-0.026995227
188	0x3d1bdb4b	0.03805093
189	0x3e3fd4b6	0.18733487
190	0xbe5e1c87	-0.2169057
191	0xbbf1714c	-0.0073682424
192	0x3dd017af	0.10160767
193	0xbd4077bd	-0.04698919
194	0xba35f5d4	-0.00069412333
195	0x3de847e9	0.11341841
196	0x3d5a4ddf	0.05329692
197	0x3ca3729e	0.019952115
198	0xbd71516b	-0.058915537
199	0xbd81d066	-0.06338577
200	0x3de71b80	0.11284542
201	0xbdde74b3	-0.10862102
202	0x3cf2913a	0.029610265
203	0xbe124284	-0.14283186
204	0xbe8999ca	-0.26875144
205	0x3d520cdf	0.051281806
206	0xbe661240	-0.224679
207	0xbdb59ec7	-0.08868175
208	0x3e10c6d1	0.14138342
209	0xbe9a15b2	-0.30094677
210	0xbd29e54c	-0.04147844
211	0x3e1c84b3	0.15284996
212	0x3ea6273b	0.32451805
213	0xbe85d1d3	-0.26136646
214	0xbe978ce8	-0.2959969
215	0xbe59ffb8	-0.21288955
216	0xbdef5836	-0.11686747
217	0x3c4fb98a	0.012678513
218	0x3dd3f215	0.10348908
219	0x3cfae9c9	0.030629056
220	0x3d85f8f6	0.06541626
221	0xbe55f97a	-0.20895949
222	0x3bb31232	0.0054648155
223	0x3de1a69f	0.110181086
224	0xbda51eb1	-0.080624945
225	0x3e0b25a8	0.13588583
226	0xbe955dbc	-0.29173076
227	0x3ddc827d	0.10767076
228	0x3e30485b	0.17215101
229	0xbe06092b	-0.13089435
230	0xbd0d34e4	-0.03447427
231	0xbdc09e67	-0.09405213
232	0xbc4655a7	-0.012105382
233	0x3bb41148	0.005495224
234	0x3dc77f22	0.097410455
235	0x3e534709	0.20632567
236	0x3e39b113	0.18133955
237	0xbe093ddb	-0.13402502
238	0x3ca1c715	0.01974825
239	0x3de270b5	0.110566534
240	0x3e85fc5f	0.26169106
241	0xbd956908	-0.07295424
242	0x3de3f95c	0.11131546
243	0xbd255a0d	-0.040369082
244	0xbe1de6ee	-0.15420124
245	0xbd799cb2	-0.060940452
246	0xbed53d9a	-0.4164856
247	0x3c51a1ea	0.012794951
248	0x3e9fa831	0.31183007
249	0x3eb38242	0.35060316
250	0xbd9fa7b7	-0.07795661
251	0x3da7acd0	0.08187258
252	0xbee31612	-0.44352776
253	0xbe9ce00f	-0.30639693
254	0x3cba0629	0.022708016
255	0xbdd48313	-0.10376563

fc3.bias f4 [32]
0	0x3d449068	0.04798928
1	0xbe062c84	-0.13102919
2	0xbd799df6	-0.06094166
3	0xbd010480	-0.031498432
4	0xbe9c6805	-0.3054811
5	0xbcdc3488	-0.026880518
6	0x3cf11cab	0.029432615
7	0xbe9aa640	-0.30204964
8	0xbe4c0a0d	-0.19925709
9	0xbe2f0c28	-0.17094481
10	0xbd983f53	-0.07433953
11	0xbdea4d85	-0.11440567
12	0xbe3926c6	-0.18081197
13	0x3d915ff1	0.070983775
14	0xbe2cb0c4	-0.16864306
15	0x3e12fb65	0.14353712
16	0x3d9e6c54	0.07735506
17	0x3d8f1926	0.069872186
18	0xbdc142ec	-0.094365925
19	0xbe14c38f	-0.14527725
20	0xbb85e9d1	-0.004086711
21	0x3d5d7e2d	0.05407541
22	0xbc91f5be	-0.017817374
23	0x3ca48fd0	0.020088106
24	0xbcf1bea5	-0.029509852
25	0xbd8f4491	-0.069955
26	0xbea2d0b9	-0.31799868
27	0xbe62cd71	-0.22148682
28	0x3d65aeca	0.056074895
29	0x3d390c99	0.04517803
30	0xbe4d81b4	-0.20069009
31	0xbe1276dd	-0.14303155

fc4.weight f4 [32, 32]
0	0x3dc24f8e	0.0948783
1	0xbcbc5e21	-0.022994103
2	0xbc7a8da9	-0.0152925635
3	0xbe5104e9	-0.2041203
4	0x3e69bb8f	0.22825454
5	0xbd93a584	-0.07209304
6	0xbe23d12c	-0.15997761
7	0x3e7efc00	0.24900818
8	0xbb16ddbd	-0.002302035
9	0x3d71a002	0.058990486
10	0xbcb91af9	-0.02259587
11	0xbdd6cf60	-0.104887724
12	0x3cacfebb	0.021117559
13	0x3e2be237	0.16785513
14	0x3de40319	0.11133403
15	0xbe382e82	-0.17986491
16	0x3cab629d	0.020921046
17	0x3d2ae935	0.04172631
18	0xbe2f5a32	-0.1712425
19	0xbd3232f5	-0.043505628
20	0x3e4ef2b3	0.2020977
21	0x3c234eda	0.00996753
22	0x3e699001	0.2280884
23	0x3d6d3b6e	0.057918005
24	0xbcf12628	-0.02943714
25	0xbc68815e	-0.014191
26	0x3e8cdd85	0.27512756
27	0x3e3301eb	0.174812
28	0xbc90e7cb	-0.017688653
29	0x3e397a83	0.18113141
30	0xbd3b1dba	-0.045682646
31	0xbd6818e3	-0.05666436
32	0xbe55a012	-0.20861843
33	0xbcfd5363	-0.030923551
34	0x3dda6bd7	0.106651
35	0x3e09b374	0.13447362
36	0x3d896386	0.06708436
37	0xbc82c36b	-0.015962323
38	0x3a0c5ea2	0.00053546776
39	0xbe3a2e0a	-0.18181625
40	0xbded0f8c	-0.11575231
41	0xbeb1fca8	-0.34763074
42	0xbe0e8ac4	-0.13920122
43	0x3c4ce8f1	0.012506709
44	0x3e8589e5	0.26081768
45	0x3e8672de	0.26259512
46	0x3e282f39	0.16424264
47	0xbde314a7	-0.110879235
48	0xbdbf9370	-0.09354293
49	0xbd9c8730	-0.076429725
50	0xbe35572c	-0.17709035
51	0x3e43f410	0.19136071
52	0xbe4860f2	-0.19568232
53	0x3e646faf	0.22308229
54	0xbea764d1	-0.32694104
55	0xbed04094	-0.4067427
56	0xbdba002c	-0.09082064
57	0xbe974689	-0.29546002
58	0xbe1b2890	-0.15152192
59	0x3e4693bc	0.19392294
60	0x3e2972e7	0.16547738
61	0x3ea780de	0.32715505
62	0x3d447d45	0.04797103
63	0x3e951889	0.2912028
64	0x3de96bbf	0.11397504
65	0xbdc96743	-0.09834149
66	0x3bcffd0b	0.0063473037
67	0xbdd0f0df	-0.102021925
68	0x3e73a209	0.2379228
69	0x3d0d4e83	0.034498703
70	0xbe9422db	-0.28932843
71	0xbe333176	-0.17499337
72	0xbe918ad2	-0.28426224
73	0xbc9ceaf2	-0.019155
74	0x3c9d7b83	0.019223934
75	0x3dff0d2d	0.12453685
76	0x3db4c40b	0.08826455
77	0xbcc1ddc8	-0.023665324
78	0xbdbb44d5	-0.09143988
79	0x3dd85795	0.1056358
80	0x3e28468c	0.16433161
81	0xbec4aa29	-0.38411072
82	0xbe8ef27d	-0.2791938
83	0xbe710f51	-0.23540999
84	0x3e6579f7	0.22409807
85	0xbe3bd375	-0.18342383
86	0x3dd57f3a	0.10424657
87	0xbdc87d36	-0.09789507
88	0x3e3ae604	0.18251806
89	0xbe64471c	-0.22292751
90	0x3dad14e3	0.084512495
91	0x3e18d72e	0.14925835
92	0xbea0a312	-0.31374413
93	0x3e335c2a	0.17515627
94	0x3e3e126a	0.18561712
95	0x3ea4ea51	0.3221002
96	0xbe22dfd0	-0.1590569
97	0xbe99b298	-0.3001907
98	0xbdf5a741	-0.11994792
99	0xbd05cc85	-0.03266575
100	0x3dcbfba6	0.099601075
101	0x3ebf4d55	0.37363687
102	0x3b83e8f5	0.0040255734
103	0xbd7cb632	-0.061697192
104	0x3ddba212	0.10724272
105	0xbeada2df	-0.33913323
106	0x3d29bd75	0.041440446
107	0xbd3d980c	-0.04628758
108	0xbed5469d	-0.41655436
109	0x3d951b4e	0.072805986
110	0xbe5b2da8	-0.21404135
111	0x3d55844b	0.052128118
112	0xbf0d9ead	-0.55320245
113	0x3d7e25db	0.06204782
114	0x3e1c81f8	0.15283954
115	0x3e933722	0.28753
116	0xbea095dc	-0.31364334
117	0xbe3dbef1	-0.1852987
118	0x3de80053	0.11328187
119	0xbb8a6412	-0.004223355
120	0xbe78e155	-0.24304707
121	0xbd53a5fa	-0.05167196
122	0x3daa4244	0.083134204
123	0xbea3a847	-0.31964323
124	0x3ecf7a21	0.40522864
125	0xbcbf69b4	-0.023365833
126	0x3e13d12a	0.14435259
127	0xbcf38236	-0.029725175
128	0xbea4c421	-0.32180884
129	0xbd4b1bd5	-0.04958709
130	0x3e5f12a6	0.21784458
131	0x3d36351d	0.044484247
132	0x3e2630e8	0.16229594
133	0xbea5068d	-0.3223156
134	0x3dd22b72	0.10262193
135	0xbdb474de	-0.08811353
136	0xbe5da5db	-0.216453
137	0x3e0b1282	0.13581279
138	0x3d95669a	0.0729496
139	0xbe2ec6f3	-0.1706808
140	0xbc227643	-0.009915891
141	0x3d9bdb87	0.07610231
142	0xbd2a56bf	-0.041586634
143	0xbe316541	-0.17323782
144	0xbdcd3e40	-0.10021639
145	0x3d8a88a2	0.06764342
146	0xbcf11bb0	-0.029432148
147	0x3e04ae96	0.12957224
148	0x3cc5f593	0.02416495
149	0xbcd16725	-0.025561878
150	0x3d8ede8b	0.069760405
151	0x3dcb788a	0.099351004
152	0x3e180d31	0.14848782
153	0x3e1a0938	0.15042579
154	0xbe860e0d	-0.26182595
155	0xbe2f329c	-0.1710915
156	0x3e0c5423	0.1370397
157	0x3e046923	0.12930731
158	0x3e87e867	0.26544496
159	0xbd3e68aa	-0.046486534
160	0xbe095b4f	-0.13413738
161	0xbdfb1a99	-0.122609325
162	0xbd8779c1	-0.066150196
163	0xbe064aec	-0.13114518
164	0x3e742cac	0.23845166
165	0xbebbb78a	-0.36663467
166	0xbbfc9e38	-0.007709291
167	0xbe9cf4c7	-0.306555
168	0xbe222558	-0.15834558
169	0xbe88495e	-0.26618475
170	0xbbde27ae	-0.0067796325
171	0x3e6899a9	0.22714867
172	0x3e86930c	0.26284063
173	0x3e7ef9c6	0.24899969
174	0x3e203e2f	0.15648721
175	0x3dcab12e	0.098970756
176	0x3a8ef936	0.0010908011
177	0x3d50305d	0.050827373
178	0xbe15bce0	-0.14622831
179	0x3e4d9daf	0.20079683
180	0xbe28f84f	-0.16500972
181	0x3c50acec	0.01273654
182	0xbec24604	-0.37944043
183	0xbf0d5b8a	-0.552178
184	0x3e9a51a9	0.30140427
185	0xbe72f3cd	-0.23725815
186	0x3e56a680	0.20961952
187	0x3de8e5ee	0.113719806
188	0x3e41dbf2	0.18931559
189	0xbcf00753	-0.029300367
190	0xbe47f14c	-0.19525641
191	0x3e8562e4	0.2605201
192	0xbe4cf53a	-0.20015422
193	0xbe4ea431	-0.20179822
194	0xbdd315be	-0.10306881
195	0xbde90dba	-0.11379571
196	0xbd981b97	-0.07427137
197	0xbe9f27e0	-0.3108511
198	0x3dcb2ee2	0.099210516
199	0xbedf3db3	-0.4360176
200	0xbd835ea4	-0.06414536
201	0xbdaac243	-0.08337834
202	0x3dc09a42	0.09404422
203	0x3e193fa0	0.14965677
204	0x3d33d121	0.043900613
205	0x3e001787	0.12508975
206	0x3dbba5de	0.09162496
207	0xbd849cfd	-0.06475256
208	0x3dfb84b8	0.122811735
209	0x3e09cb8f	0.13456558
210	0xbc09d345	-0.008412187
211	0x3da618a4	0.081101686
212	0xbe0a812c	-0.13525838
213	0x3e6d0fdc	0.23150581
214	0xbe22ec2a	-0.15910402
215	0xbecc3a1e	-0.3988809
216	0x3e08842e	0.13331673
217	0xbdc2508d	-0.0948802
218	0xbeb012ab	-0.34389243
219	0xbd11538a	-0.03548006
220	0x3ddf77a1	0.10911489
221	0x3e3d6ef3	0.18499355
222	0x3da04387	0.0782538
223	0x3d1cda14	0.038293913
224	0xbd25da7b	-0.040491562
225	0xbe9a92ed	-0.3019022
226	0xbdbf71c7	-0.09347873
227	0xbdcc4d34	-0.09975663
228	0x3e9f8325	0.31154743
229	0x3d5943cd	0.053043175
230	0xbea02956	-0.31281537
231	0xbd93a374	-0.072089106
232	0xbd82c79c	-0.06385729
233	0xbeaeac80	-0.34115982
234	0xbe22ca90	-0.15897584
235	0xbdddea2e	-0.10835682
236	0x3de4f981	0.111804016
237	0xbd5bbf6f	-0.053649362
238	0x3c9bcf09	0.01901962
239	0xbeb34ca9	-0.35019425
240	0xbc7294eb	-0.014806013
241	0xbbe206b1	-0.0068977703
242	0xbd6021dc	-0.05471979
243	0xbe6f81a1	-0.23389293
244	0x3e333521	0.17500736
245	0xbe11bcec	-0.14232224
246	0x3d391c83	0.045193207
247	0x3d24b949	0.040215764
248	0x3e3c0e31	0.18364789
249	0x3dd9e825	0.10639981
250	0x3d5e163f	0.054220434
251	0x3e85b3e3	0.26113805
252	0xbdcd4203	-0.10022356
253	0xbe327880	-0.1742878
254	0xbd14aa0c	-0.03629498
255	0x3e5a2ac4	0.21305376

fc4.bias f4 [32]
0	0xbe3f5e00	-0.18688202
1	0xbdc8a128	-0.09796363
2	0xbd826289	-0.0636645
3	0x3e84ca34	0.2593552
4	0x3dafa2b6	0.085759565
5	0x3dd4bbc3	0.10387375
6	0xbd56c34d	-0.052432347
7	0xbdb06845	-0.08613638
8	0xbea0fab1	-0.31441262
9	0xbdc312e3	-0.09525087
10	0xbe126e38	-0.14299858
11	0xbd813d73	-0.06310549
12	0xbda68ceb	-0.08132347
13	0xbe243686	-0.16036424
14	0xbce53b54	-0.027982391
15	0xbe8fdd9f	-0.2809877
16	0xbdf37bfb	-0.11888882
17	0xbe19c4a2	-0.15016416
18	0xbe12db09	-0.14341368
19	0x3d3328be	0.043740027
20	0x3df227ba	0.118239835
21	0xbd7773c6	-0.060413145
22	0xbe69bf38	-0.2282685
23	0xbd8728c5	-0.06599573
24	0xbda08cfd	-0.078393914
25	0xbe383e55	-0.17992528
26	0x3d37f26b	0.044908922
27	0xbd0a5d59	-0.03378043
28	0xbe764058	-0.24047983
29	0xbdaf22dc	-0.08551571
30	0xbe3edf45	-0.18639858
31	0x3daec6e6	0.085340306

fc5.weight f4 [32, 32]
0	0x3ce3534e	0.027749684
1	0x3d3a5f4f	0.04550105
2	0x3dbaa3e1	0.09113289
3	0xbe401390	-0.18757463
4	0xbbf94de8	-0.007608164
5	0xbe005fa5	-0.12536485
6	0xbcde8f66	-0.027167987
7	0x3dc5b8dc	0.096544
8	0x3d009b29	0.031397972
9	0xbdfa7843	-0.12229969
10	0x3e9370e6	0.28797072
11	0x3e1cb5bf	0.15303706
12	0xbde12328	-0.10993034
13	0xbe8e50ed	-0.27796116
14	0xbd0a3b24	-0.033747807
15	0x3b94beb9	0.0045393375
16	0x3dfdeced	0.12398706
17	0x3e2a1372	0.1660898
18	0x3e902a93	0.28157482
19	0xbe28d525	-0.16487558
20	0x3c1d9a00	0.009619236
21	0x3e2436ea	0.16036573
22	0xbe0b2199	-0.13587035
23	0xbeabede3	-0.3357993
24	0x3d7230a3	0.059128415
25	0xbdc54684	-0.096325904
26	0xbd54d9f0	-0.051965654
27	0x3d35251c	0.044224843
28	0x3e1a53c4	0.15071017
29	0x3e8eb390	0.2787137
30	0xbe121c3c	-0.14268583
31	0x3e696a68	0.22794497
32	0x3e252c7e	0.16130254
33	0xbd65d1cc	-0.05610828
34	0xbd621a01	-0.05520058
35	0x3e9bcc20	0.30429173
36	0xbe175514	-0.14778548
37	0xbdff2329	-0.12457878
38	0xbd76e0f7	-0.060273137
39	0xbea9af5e	-0.33141607
40	0xbcd87fd6	-0.026428144
41	0x3e7d3883	0.24728589
42	0xbc64f299	-0.013973855
43	0xbedb8048	-0.42871308
44	0x3eab6d52	0.33481842
45	0xbe8471e7	-0.2586815
46	0x3dc97ad3	0.0983788
47	0xbe6e5e80	-0.23278236
48	0xbe2ae4be	-0.1668882
49	0xbe996ae2	-0.29964358
50	0xbcf7d6ea	-0.030253846
51	0x3e948e04	0.290146
52	0x3e1d82ca	0.15381923
53	0xbbfe3b14	-0.0077585075
54	0x3e578d94	0.21050102
55	0x3e8f05bc	0.27934062
56	0x3e1bb256	0.15204749
57	0x3deb6bc4	0.11495164
58	0x3d4f1dbf	0.050565477
59	0x3d30b1bf	0.043138262
60	0x3d133f43	0.035949003
61	0xbda6852a	-0.08130868
62	0x3eab552d	0.3346342
63	0x3e156c95	0.14592202
64	0xbe3e9408	-0.18611157
65	0xbdf30fb1	-0.11868227
66	0xbe49cf8f	-0.19708084
67	0x3e6b69a7	0.22989522
68	0xbde0d083	-0.109772705
69	0xbe0f8d8f	-0.14018844
70	0x3ddd9cb7	0.108209066
71	0x3dfb1396	0.12259595
72	0xbcb88766	-0.0225255
73	0xbe7a4519	-0.24440421
74	0x3c99d89a	0.018780041
75	0xbc12f7ba	-0.008970195
76	0x3e5ab26a	0.21357122
77	0x3d935f0a	0.07195862
78	0x3ec8a4af	0.39188144
79	0x3e552ee5	0.2081867
80	0x3e256ae9	0.16154064
81	0x3e5d472a	0.21609178
82	0x3d4e550f	0.050374087
83	0xbe2df9b3	-0.16989784
84	0xbe03f7a9	-0.12887444
85	0x3cae624c	0.021287106
86	0x3e56d62e	0.2098014
87	0x3e2b2668	0.1671387
88	0xbd4d17ee	-0.05007165
89	0xbdb18001	-0.08666993
90	0xbca0183f	-0.019542811
91	0x3d5867e4	0.052833453
92	0x3e0b0854	0.13577396
93	0xbe1fb4da	-0.15596333
94	0x3e907e02	0.28221136
95	0xbeabdc36	-0.33566445
96	0x3dbef1cd	0.093234636
97	0xbd99b417	-0.075050525
98	0x3e0a2c79	0.13493527
99	0xbdf17160	-0.11789203
100	0x393090cb	0.00016838608
101	0x3df8307c	0.12118623
102	0x3c28d5b7	0.01030486
103	0x3d988a84	0.07448295
104	0xbcaef9e6	-0.021359395
105	0x3d1f31dd	0.038865913
106	0x3e7e0924	0.24808174
107	0x3d2b267a	0.04178474
108	0xbe19aca7	-0.15007268
109	0x3ae6aaa6	0.0017598465
110	0xbe0d4ff8	-0.13800037
111	0xbcd11cc2	-0.025526408
112	0xbdf3048e	-0.11866103
113	0xbc0dbeec	-0.008651476
114	0xbe5530e5	-0.20819433
115	0xbd5d4b33	-0.054026794
116	0x3c0755b3	0.008260178
117	0x3e2017ed	0.15634127
118	0xbdc666f4	-0.096876055
119	0xbb9e129e	-0.0048239967
120	0x3ca5c990	0.020237714
121	0xbde06ad5	-0.109578766
122	0xbd45b7c4	-0.048270956
123	0xbebab857	-0.36468765
124	0x3e2c1446	0.16804609
125	0x3e8c68cf	0.27423713
126	0xbe01ec30	-0.12687755
127	0xbd8697fb	-0.06571957
128	0xbe8703b1	-0.26370004
129	0x3e94f52c	0.290933
130	0x3b8daf84	0.0043239016
131	0x3e2e9fe2	0.17053178
132	0x3ce5f580	0.028071165
133	0x3db918b5	0.090379156
134	0x3d5d4deb	0.054029386
135	0xbe41c404	-0.1892243
136	0xbd8dded4	-0.06927267
137	0x3e86cb43	0.2632695
138	0xbe6a3e11	-0.22875239
139	0xbe1c9f7a	-0.1529521
140	0xbd8154bb	-0.06314989
141	0x3e27c49a	0.16383591
142	0xbce4675c	-0.027881317
143	0xbef0958c	-0.46989095
144	0xbe0264e8	-0.12733805
145	0x3d0bc1f6	0.034120522
146	0xbe3bf235	-0.18354113
147	0xbd613f85	-0.054992218
148	0x3e8e6a43	0.27815446
149	0xbd2544b3	-0.04034872
150	0xbe9b35b9	-0.30314425
151	0x3dcf442e	0.10120426
152	0xbe9231f5	-0.2855374
153	0x3e3cbe65	0.18432005
154	0x3e7b1ba2	0.2452226
155	0x3e40799e	0.18796393
156	0xbda6ebe7	-0.081504636
157	0xbe86e220	-0.26344395
158	0x3af25150	0.0018487368
159	0x3e962e06	0.29331988
160	0xbe4f3bc6	-0.20237646
161	0x3e9874c2	0.2977658
162	0xbd85f475	-0.06540767
163	0xbd41c4fe	-0.047307007
164	0x3de0890d	0.1096364
165	0x3e33bf6c	0.1755349
166	0x3ec84de6	0.39121932
167	0xbdb9de96	-0.09075658
168	0x3cffeb92	0.031240258
169	0x3e8af3d9	0.27139166
170	0xbe4944f6	-0.19655213
171	0x3de446ef	0.11146342
172	0xbd4b8b89	-0.049693618
173	0x3e273ef0	0.16332603
174	0xbe87d001	-0.26525882
175	0xbd0c2609	-0.03421596
176	0xbdbf29e3	-0.09334161
177	0xbe39fd88	-0.18163121
178	0x3e23e790	0.16006303
179	0xbe94f429	-0.2909253
180	0x3e60efd3	0.21966486
181	0x3d7f4533	0.062321853
182	0xbdeacd9a	-0.11464997
183	0x3beb3760	0.007178232
184	0xbe83e49b	-0.2576035
185	0x3e8fad7b	0.28062043
186	0x3c8befea	0.017082173
187	0xbe2d0d70	-0.16899657
188	0x3d56e60e	0.05246549
189	0xbe8567ce	-0.2605576
190	0xbdea9b64	-0.1145542
191	0x3eb7411b	0.3579186
192	0xbcf5edd7	-0.030020637
193	0x3e704da2	0.23467115
194	0x3e53157f	0.20613669
195	0xbd1d3590	-0.03838116
196	0x3e10cb66	0.1414009
197	0xbea1c5c2	-0.3159619
198	0x3e47c3da	0.19508305
199	0xbe1f6911	-0.15567423
200	0xbe070bd3	-0.13188104
201	0x3e0d0323	0.13770728
202	0xbe2c2dcf	-0.1681435
203	0xbd786820	-0.060646176
204	0x3e966d9e	0.29380506
205	0xbcb18bd3	-0.021673119
206	0x3da7cd53	0.08193459
207	0xbe96d25c	-0.29457366
208	0xbddb054a	-0.10694368
209	0xbd247f15	-0.040160257
210	0xbea8c7e0	-0.32964993
211	0x3de49116	0.111604854
212	0x3e7c2809	0.24624647
213	0xbd928b6b	-0.07155498
214	0x3cddd0b0	0.027077049
215	0x3d818ee3	0.063260816
216	0xbe25ece5	-0.1620365
217	0xbd5dbb28	-0.054133564
218	0x3e990b08	0.2989123
219	0xbd8c787b	-0.06858917
220	0x3e6ca90a	0.23111358
221	0xbe76df09	-0.24108519
222	0x3d64c42e	0.055851154
223	0x3e191e8d	0.1495306
224	0x3e1e98db	0.15487997
225	0x3d485f83	0.048919212
226	0xbe929e5a	-0.28636438
227	0xbe4853e7	-0.19563256
228	0x3dcfafd5	0.10140959
229	0x3e8565fe	0.26054376
230	0x3e677ed3	0.22606973
231	0x3de82274	0.113346964
232	0xbe427df2	-0.18993357
233	0x3e4e516b	0.20148246
234	0xbd48810b	-0.04895119
235	0x3e5c0dd6	0.21489653
236	0xbe3ecea9	-0.18633522
237	0x3c9e807b	0.019348374
238	0xbea6f036	-0.3260514
239	0xbedac9c5	-0.42732063
240	0x3dec5868	0.115403
241	0x3dd64b61	0.10463596
242	0x3e53eeaf	0.2069652
243	0xbec25684	-0.3795663
244	0x3d00c5b0	0.03143853
245	0x3da37e86	0.07983117
246	0xbed55d67	-0.41672823
247	0xbd37f1fd	-0.044908512
248	0xbcc5c690	-0.024142534
249	0x3eb2566b	0.34831557
250	0x3dc25529	0.09488899
251	0xbd934e53	-0.071926735
252	0xbe4e9f43	-0.20177941
253	0xbe8f1cf7	-0.27951786
254	0xbe2cf9d3	-0.16892175
255	0x3e8a0a3a	0.26960927

fc5.bias f4 [32]
0	0xbd59114c	-0.05299501
1	0x3e540017	0.2070316
2	0xbcea9b03	-0.028638368
3	0xbe95312b	-0.29139075
4	0xbd46f36c	-0.04857199
5	0xbe30bedd	-0.17260309
6	0x3e120a2f	0.14261697
7	0x3d1d1a94	0.038355425
8	0xbcb10d65	-0.021612832
9	0xbd9d865e	-0.07691644
10	0xbefbf700	-0.49211884
11	0xbdde801b	-0.10864278
12	0xbe3ceb6c	-0.18449181
13	0xbe23f1f1	-0.16010262
14	0x3cd2c68c	0.02572944
15	0xbe643834	-0.22287065
16	0xbd22c404	-0.039737716
17	0xbccbd038	-0.02487956
18	0x3e76f436	0.24116597
19	0x3c176007	0.009239203
20	0xbe1e28a2	-0.15445188
21	0x3c28736c	0.010281425
22	0xbae7baa7	-0.0017679528
23	0xbdc13760	-0.0943439
24	0xbe100229	-0.14063324
25	0x3e4ebebd	0.20189948
26	0x3dca1ec9	0.09869153
27	0xbd9930ce	-0.07480012
28	0xbe6418f9	-0.22275151
29	0xbe15af5d	-0.14617677
30	0xbdc029b5	-0.09382955
31	0x3cc8804b	0.024475237

fc6.weight f4 [16, 32]
0	0x3e87963e	0.26481813
1	0xbd7b8e03	-0.06141473
2	0x3c59c70e	0.013292087
3	0x3be93c75	0.0071178027
4	0xbc36e67c	-0.01116335
5	0x3e0b3a30	0.13596416
6	0x3e392d4d	0.18083687
7	0x3dd78121	0.10522676
8	0x3e879589	0.26481274
9	0x3e5719d9	0.21005954
10	0xbcd82439	-0.02638446
11	0xbe58834c	-0.21143836
12	0x3e1eb6a8	0.15499365
13	0x3ed0b488	0.40762734
14	0xbe792589	-0.24330725
15	0x3e8602b2	0.2617393
16	0xbddae02c	-0.10687289
17	0x3dea9b8a	0.11455448
18	0xbd6bbdf5	-0.057554204
19	0x3e87a2b4	0.2649132
20	0x3ecf7fee	0.4052729
21	0x3d99b381	0.07504941
22	0x3d856a83	0.06514456
23	0x3e294c99	0.16533126
24	0x3e0e9a6f	0.13926099
25	0xbd324b8e	-0.043529086
26	0xbda1de79	-0.079037614
27	0xbdafd47b	-0.08585449
28	0x3e644835	0.2229317
29	0xbdcb846f	-0.09937369
30	0x3e8a91c3	0.27064332
31	0x3efec89d	0.4976243
32	0x3d0a6ee0	0.033797145
33	0xbea2dedc	-0.31810653
34	0x3cc9c365	0.024629304
35	0x3e1e2f2a	0.15447679
36	0x3de74abd	0.11293552
37	0x3ebe99be	0.3722667
38	0xbe652d10	-0.22380471
39	0xbe473a00	-0.19455719
40	0x3ea9e50e	0.33182567
41	0x3e168a93	0.147013
42	0x3c2506da	0.010072434
43	0xbeb294a1	-0.3487902
44	0xbdacfd75	-0.084467806
45	0x3f400d72	0.75020516
46	0xbe92711e	-0.28601927
47	0xbb139a7d	-0.0022522502
48	0xbe8be15f	-0.27320382
49	0x3dc03056	0.09384219
50	0xbe3f4773	-0.186796
51	0x3ee47ccb	0.4462646
52	0x3e331981	0.17490198
53	0x3e0b4186	0.13599214
54	0x3da4f8d9	0.080552764
55	0xbcb4ae73	-0.02205584
56	0xbe3d47f0	-0.18484473
57	0x3d20c340	0.039248705
58	0xbe8fd8bd	-0.28095046
59	0x3e9cda08	0.30635095
60	0x3e335604	0.17513281
61	0xbd3cb460	-0.046070457
62	0x3e9c6852	0.3054834
63	0x3f3c9ea4	0.73679566
64	0xbe4452da	-0.1917223
65	0x3e970991	0.29499486
66	0x3c5d8543	0.013520542
67	0xbe892df0	-0.2679286
68	0x3e68ae21	0.22722675
69	0xbd852685	-0.06501488
70	0x3e91de58	0.28489947
71	0x3e12f931	0.14352871
72	0x3e3c70f9	0.1840247
73	0x3dcbd2fe	0.09952353
74	0xbe1e5796	-0.15463099
75	0xbc30fc22	-0.010802301
76	0xbc6ae846	-0.014337605
77	0xbd9cca9a	-0.07655831
78	0x3d615113	0.05500896
79	0xbd949353	-0.07254662
80	0x3e2c4522	0.16823247
81	0xbe88c116	-0.26709813
82	0x3daf74c3	0.085671924
83	0xbd7af2a3	-0.061266553
84	0xbd8bae45	-0.06820349
85	0x3e7cd5b9	0.24690904
86	0xbc4a47d1	-0.012346224
87	0xbd99c9cc	-0.07509193
88	0x3d7b2baf	0.061320957
89	0x3e0d5242	0.1380091
90	0xbe081e66	-0.13292846
91	0x3e1e0b03	0.15433888
92	0x3d17f1b2	0.037095733
93	0xbdfe109f	-0.12405514
94	0x3e10aca9	0.14128365
95	0xbd1b10f0	-0.03785795
96	0x3e96a407	0.29422018
97	0xbe015ac7	-0.12632285
98	0x3ea506ff	0.322319
99	0x3e8b2c39	0.27182177
100	0xbe798a81	-0.24369241
101	0xbe4f063f	-0.20217226
102	0xbea5688a	-0.3230632
103	0x3e62167a	0.22078887
104	0xbe5e3a00	-0.21701813
105	0x3b0b119e	0.0021220217
106	0x3e16b881	0.1471882
107	0x3ecdfd11	0.40232137
108	0x3ec20352	0.37893158
109	0xbe9bcf81	-0.3043175
110	0x3e438608	0.19094098
111	0x3f1f9c9d	0.6234835
112	0x3e0ca1e6	0.13733634
113	0x3e94e731	0.29082635
114	0xbc15bd23	-0.009139332
115	0xbcd78e37	-0.02631293
116	0x3eba3b0b	0.3637317
117	0xbdf8b0b6	-0.1214308
118	0x3dc24fca	0.09487875
119	0x3bae075a	0.005310935
120	0x3e8b6ced	0.2723154
121	0xbe8321ed	-0.2561182
122	0x3ed6869c	0.41899574
123	0xbe86cb26	-0.26326865
124	0x3ea41395	0.3204619
125	0x3eea002c	0.45703256
126	0xbed28c66	-0.4112274
127	0xbde96e48	-0.113979876
128	0xbe91d38b	-0.28481707
129	0xbdc0ff2a	-0.09423669
130	0xbe604fef	-0.21905492
131	0x3d489f31	0.04897994
132	0x3e24b40f	0.16084312
133	0x3e9537ef	0.29144236
134	0x3e10a062	0.14123681
135	0x3e4ec499	0.20192184
136	0xbd6f998d	-0.058496047
137	0x3e7ad40f	0.24494956
138	0x3e9831fc	0.29725635
139	0x3d5ecbec	0.054393694
140	0xbe054ba4	-0.13017136
141	0xbe8edda4	-0.27903473
142	0xbd6b248c	-0.0574079
143	0x3d5a7608	0.05333522
144	0xbc975a36	-0.018475633
145	0x3dde32a4	0.10849503
146	0xbd808a4f	-0.0627638
147	0x3d911713	0.07084479
148	0x3dd8da05	0.10588459
149	0x3cfbcd0b	0.03073742
150	0x3e3c16e0	0.18368101
151	0xbd9e64c5	-0.07734064
152	0x3dc9d6ce	0.09855424
153	0x3e3e2744	0.18569666
154	0xbde097db	-0.10966464
155	0x3df94224	0.121708184
156	0xbe1c2112	-0.1524699
157	0xbc3f4f81	-0.01167667
158	0x3ea1960a	0.31559783
159	0xbe1ad80a	-0.15121475
160	0xbe3a68e1	-0.1820407
161	0xbcb3e131	-0.021957966
162	0xbe252146	-0.16125974
163	0xbc5403f3	-0.012940395
164	0x3dff709e	0.12472652
165	0x3e44530a	0.19172302
166	0xbd912767	-0.070875935
167	0x3da88831	0.082291014
168	0x3e68b12d	0.22723837
169	0x3dc1e091	0.09466661
170	0xbe4ec854	-0.20193607
171	0xbdb1b628	-0.08677322
172	0xbde42f37	-0.11141818
173	0x3e2a2208	0.16614544
174	0xbdf19df7	-0.117977075
175	0x3cb6a424	0.022295065
176	0x3da3737f	0.079810135
177	0xbd8f7ffd	-0.07006834
178	0xbd3b4ef9	-0.04572961
179	0xbcc022d4	-0.023454107
180	0xbed968b9	-0.4246271
181	0x3e697cc8	0.22801507
182	0xbd9c7b6c	-0.07640728
183	0x3d055bdd	0.03255831
184	0xbe5c1060	-0.21490622
185	0x3e0c67e4	0.13711506
186	0xbdfeefca	-0.1244808
187	0x3e4beb2e	0.19913933
188	0xbdc3eaea	-0.09566291
189	0x3b90101e	0.0043964526
190	0x3e6a0171	0.22852112
191	0xbc85317e	-0.016258951
192	0xbe065c76	-0.13121209
193	0x3e0a6e81	0.13518716
194	0xbe767a0e	-0.24069998
195	0xbdc55dd1	-0.09637035
196	0x3da9f268	0.082981884
197	0x3e2d2ad2	0.16910866
198	0xbe223d36	-0.15843663
199	0x3de53563	0.11191823
200	0x3eae6fcd	0.34069672
201	0x3e877ec8	0.26463914
202	0x3d86ae81	0.06576253
203	0x3c664fc3	0.014057103
204	0xbe32349e	-0.17402884
205	0x3d8518f2	0.064988986
206	0xbe27b3c5	-0.1637717
207	0xbe690886	-0.22757158
208	0xbd13bec5	-0.036070604
209	0xbd050129	-0.03247181
210	0xbdd4811c	-0.10376188
211	0x3d8946ab	0.06702932
212	0xbea68c3b	-0.32528862
213	0x3e17399a	0.14768067
214	0x3d7fc28e	0.0624414
215	0xbd960a15	-0.07326142
216	0xbdd15ccb	-0.10222777
217	0x3e226f91	0.15862872
218	0xbdec4e85	-0.11538414
219	0x3ea1de0f	0.3161473
220	0xbd7ef2a0	-0.062243104
221	0xbd3a5344	-0.045489565
222	0x3d45f7ac	0.0483319
223	0x3df684bf	0.12037038
224	0xbdf2ad04	-0.11849406
225	0xbd495223	-0.049150597
226	0xbe3df913	-0.18552046
227	0xbdac47b2	-0.08412112
228	0x3e13e359	0.14442195
229	0x3d1539a5	0.036431927
230	0xbe8f9c84	-0.280491
231	0x3d9a2962	0.075274244
232	0xbdc0c6ff	-0.094129555
233	0x3c969b0f	0.018384485
234	0x3e5654dc	0.20930809
235	0xbe4017ad	-0.18759032
236	0xbd6ae61a	-0.05734835
237	0x3ccf68a9	0.02531846
238	0x3bbe3fea	0.005805959
239	0xbe4ef068	-0.20208895
240	0xbe1ac87e	-0.15115544
241	0xbd8288fe	-0.063737854
242	0x3e12294c	0.14273566
243	0xbebc95f7	-0.36833164
244	0x3d852831	0.065018065
245	0x3e9bd916	0.3043906
246	0xbd994078	-0.074829996
247	0x3e07e492	0.13270786
248	0xbda418f1	-0.0801257
249	0x3bbcbd3e	0.005759864
250	0xbe1c9b13	-0.15293531
251	0x3dd52b75	0.104086794
252	0xbe1ba73e	-0.15200517
253	0x3c087d6f	0.008330687
254	0xbb6e5cb6	-0.0036371178
255	0x3d5f71e9	0.054551993

fc6.bias f4 [16]
0	0x3b68de6a	0.003553296
1	0x3c15d7ba	0.0091456715
2	0x3df98fd7	0.121856384
3	0xbdac4f73	-0.08413591
4	0x3e0fad0b	0.14030854
5	0x3bb1ab95	0.0054220655
6	0xbd95f70f	-0.07322513
7	0xbd0ed398	-0.03486976
8	0xbd83352c	-0.06406626
9	0xbea70699	-0.3262222
10	0xbdd5ac74	-0.104332834
11	0x3e28e109	0.16492094
12	0xbe298e24	-0.16558129
13	0xbca1c995	-0.019749442
14	0xbe67d5cf	-0.22640155
15	0xbc946a92	-0.018117223

fc7.weight f4 [3, 16]
0	0x3d91b264	0.071141034
1	0x3d8cc1bd	0.0687289
2	0x3d4fa085	0.050690193
3	0xbf68ae9a	-0.9089142
4	0x3e4703a5	0.19434984
5	0x3dd912a9	0.10599262
6	0xbd8a2674	-0.067456156
7	0x3da4d9fd	0.080493905
8	0xbe19ce54	-0.15020114
9	0x3dee2bb1	0.11629427
10	0xbeb817f2	-0.3595577
11	0x3e89e460	0.2693205
12	0xbdfd2b11	-0.1236173
13	0xbf5a8637	-0.85361046
14	0x3e81a1b5	0.25318685
15	0x3e87f8ab	0.26556906
16	0xbecb91a9	-0.39759567
17	0xbf09f9fb	-0.53897065
18	0x3d4985da	0.049199916
19	0x3eba7083	0.36413965
20	0x3d40800b	0.04699711
21	0xbe570c55	-0.21000798
22	0xbe866976	-0.26252335
23	0x3d45124b	0.04811315
24	0x3dc14acb	0.09438094
25	0xbe661283	-0.22467999
26	0x3e7554a7	0.23958074
27	0x3e8b2a59	0.27180746
28	0x3e7a542d	0.24446173
29	0x3e9f95d4	0.31168997
30	0xbeae4873	-0.3403965
31	0x3e753c84	0.23948866
32	0x3d3cfaf8	0.04613778
33	0x3ddea603	0.10871508
34	0xbf0f6805	-0.56018096
35	0x3ea1cae2	0.316001
36	0xbe2d5ee7	-0.16930734
37	0x3db8c8da	0.090226844
38	0xbdfb3362	-0.1226566
39	0x3dc799b1	0.09746111
40	0xbe9e5863	-0.3092681
41	0xbe99576e	-0.29949516
42	0x3dfa09f1	0.122089274
43	0xbf44ecb1	-0.7692366
44	0xbe164075	-0.14673026
45	0x3ea6b9d5	0.32563654
46	0x3e79be38	0.24388969
47	0xbf3f5dad	-0.7475231

fc7.bias f4 [3]
0	0x3b7870e2	0.003790908
1	0x3e70db8a	0.23521248
2	0x3dd3a734	0.10334626

LayerNorm32.weight f4 [32]
0	0x3f825cc1	1.0184556
1	0x3f8b0d3f	1.0863417
2	0x3f8c6973	1.096968
3	0x3f4d6570	0.80232906
4	0x3f81a62b	1.0128835
5	0x3f4f4ebe	0.80979526
6	0x3f540af1	0.82829195
7	0x3f831878	1.0241842
8	0x3f8b0828	1.0861864
9	0x3f9ab8b9	1.2087623
10	0x3f83dff2	1.0302718
11	0x3f87778e	1.058336
12	0x3f915141	1.1352922
13	0x3f825326	1.0181625
14	0x3f659e9e	0.89695156
15	0x3f5d4740	0.86436844
16	0x3f7d1225	0.9885581
17	0x3f880640	1.0626907
18	0x3f617b2c	0.8807857
19	0x3f961179	1.1724082
20	0x3fa82a91	1.313799
21	0x3f2bc852	0.6710254
22	0x3f7eb0f0	0.99488735
23	0x3f95bbff	1.1697997
24	0x3f9ac966	1.2092712
25	0x3f613aa7	0.8798012
26	0x3f9f2e40	1.2435989
27	0x3f6a496c	0.9151828
28	0x3f92aecb	1.1459593
29	0x3f81f2b3	1.0152191
30	0x3f6d6ba7	0.9274239
31	0x3f7fe10e	0.9995278

LayerNorm32.bias f4 [32]
0	0xbdab745f	-0.083718054
1	0x3e30d844	0.17269999
2	0x39f1d88e	0.00046128448
3	0x3d7990c7	0.060929086
4	0xbd0042aa	-0.031313576
5	0x3d9533d7	0.07285278
6	0x3d7fe79b	0.062476736
7	0xbd45689a	-0.04819546
8	0xbb536a00	-0.0032259226
9	0xbd46ca59	-0.048532818
10	0x3d767136	0.06016656
11	0x3d05000e	0.032470755
12	0xbcc26a5b	-0.023732355
13	0x3de4a13d	0.11163566
14	0x3c0ae815	0.008478184
15	0x3e5662d3	0.20936136
16	0xbcd82e76	-0.026389342
17	0x3d2f5613	0.042806696
18	0xbd491242	-0.049089678
19	0x3c7c4a67	0.015398598
20	0x3cd62d8a	0.026144762
21	0xbdd28300	-0.102788925
22	0x3dd97f77	0.10620015
23	0x3d55e5d9	0.052221153
24	0xbdd8384b	-0.10557612
25	0x3e11d7f2	0.14242533
26	0x3e0a0e8a	0.13482109
27	0xbd387d76	-0.045041524
28	0x3de4642d	0.111519195
29	0xbcffcca4	-0.03122551
30	0x3d5a6525	0.053319115
31	0x3d649ffb	0.05581663
